method/mymodel-yelp/save/1616881927/dis_model_params.pkl (torch, 125505 bytes, 5 tensors)

fc1.weight f4 [100, 256]
0.015871141 0.021631738 0.014217337 0.05520693 -0.16180472 0.10161944 -0.019655893 -0.018232157
0.013680027 -0.07175326 0.13779283 -0.021425476 -0.12684715 0.017531337 -0.044898666 0.033731278
-0.08009079 -0.05477063 0.0013933987 0.091095544 -0.06763483 0.10915068 0.102554046 0.08636753
0.03570803 -0.07796905 -0.055538766 -0.005255309 0.030944379 0.13829584 -0.034090947 0.007501124
0.085180946 0.0123486975 0.019355768 0.068559304 0.038117457 0.040911116 -0.033037376 -0.09775949
-0.12921353 0.025368463 0.005497548 -0.072848395 -0.0714642 0.10464668 0.062704965 -0.02307956
0.019342337 -0.121625856 -0.0053279987 -0.1147829 -0.16306725 0.105308995 -0.096300915 0.013825081
-0.039724335 -0.09817138 0.010942465 -0.121974744 0.12507707 0.05737165 -0.019148666 0.088363074
-0.076351196 -0.15562405 -0.09671532 0.038297344 0.045909207 0.11851747 -0.024357371 -0.023765763
-0.0032279454 0.108326934 -0.1640621 -0.080352224 0.049578246 0.08147971 0.062308405 0.09334563
0.03887594 -0.10754894 -0.012582611 -0.05459098 0.053596884 -0.08367983 0.0692192 -0.036148444
0.032330554 0.11788496 -0.18163054 0.057163704 0.07521362 -0.14526351 0.06510383 -0.015315412
0.048141476 0.027190426 -0.07210102 0.011254891 0.058620334 -0.12687172 0.05835338 -0.028522272
0.006811471 0.15858851 0.057495486 0.05314159 -0.16123833 -0.073064215 0.07325201 0.09150589
-0.0057729594 0.006118478 -0.054861434 -0.1187292 0.031916805 -0.14045304 0.07688015 -0.005338129
0.08062232 -0.087466076 0.14299515 0.09292683 0.11442574 -0.107420444 0.123490125 0.056084964
0.12179281 0.053460285 -0.07240263 -0.029315982 -0.028452506 0.12685558 0.04119541 -0.056752045
0.041294497 0.011343829 0.0028990477 0.10108093 0.19751589 -0.14076835 0.08455119 0.06564781
0.14650565 0.12028929 0.11609505 -0.05751902 0.05436592 0.07314525 0.055740267 -0.092888
0.012836428 -0.021384949 0.080826536 -0.034282316 0.08546834 -0.085166045 -0.08676154 -0.09267393
-0.09745225 -0.045142446 -0.060871866 -0.043637443 0.015319088 0.0043670675 -0.089931644 -0.10920857
0.04349021 -0.048555028 0.031152787 0.11514417 -0.08171371 0.036209214 0.00848751 0.047542255
0.13068672 0.16564904 -0.13769495 0.035382174 0.10465892 0.029884553 0.046163026 0.0009964578
-0.18670431 -0.0012818075 -0.19248445 0.049643345 0.01822705 -0.06590711 -0.046558052 0.054639287
-0.051843062 -0.16951655 0.020292846 -0.083554424 0.12210463 -0.10560973 0.06529124 0.100934885
0.0027556256 0.082594395 0.017862167 0.13974324 -0.029074641 0.011557055 -0.041673094 -0.08768998
-0.07370597 0.059827242 0.11338189 -0.14841628 -0.013556648 0.047506128 -0.13709436 -0.017772896
-0.12369068 0.07201632 -0.09509352 0.112629145 -0.11335903 0.109632626 -0.07074413 0.08520942
0.07359334 -0.050254643 0.005550914 0.07620712 0.031132191 0.035159927 -0.005483319 -0.0023349572
0.011060348 -0.10070298 0.20321928 0.05606701 0.07489709 -0.09767859 0.004467826 -0.066664964
0.1917427 0.0007594866 0.021018296 -0.030023089 -0.10558202 0.27012357 -0.18644957 -0.15729453
-0.1645632 -0.06544824 -0.058865026 -0.0077633797 -0.0008814084 -0.11566985 -0.10520679 -0.0711828
00000000: 3204 823c 0b35 b13c d5ef 683c a920 623d
00000010: 23b0 25be da1d d03d 6505 a1bc 9b5b 95bc
00000020: 3122 603c 60f3 92bd 9019 0d3e 7b84 afbc
00000030: 38e4 01be e19d 8f3c aae7 37bd cf29 0a3d
00000040: a406 a4bd 2b57 60bd b4a2 b63a 4d90 ba3d
00000050: 2184 8abd 648a df3d db07 d23d 76e1 b03d
00000060: 9542 123d 3dae 9fbd 9e7c 63bd ba34 acbb
00000070: 117f fd3c 6d9d 0d3e f3a2 0bbd fdcb f53b
00000080: 5973 ae3d 3152 4a3c fd8f 9e3c d268 8c3d
00000090: 0d21 1c3d 6a92 273d 3352 07bd 2136 c8bd
000000a0: 8d50 04be 86d1 cf3c c624 b43b 8a31 95bd
000000b0: d35b 92bd 0051 d63d 766b 803d 5811 bdbc
000000c0: d273 9e3c fa16 f9bd 7e96 aebb 4c13 ebbd
000000d0: 1afb 26be 3eac d73d 6a39 c5bd 9882 623c
000000e0: fcb5 22bd 140e c9bd 0648 333c e5cd f9bd
000000f0: 3414 003e 89fe 6a3d aadd 9cbc b3f7 b43d
00000100: 045e 9cbd e95b 1fbe af12 c6bd addd 1c3d
00000110: 4b0b 3c3d 4ab9 f23d 1c89 c7bc 6bb0 c2bc
00000120: f08b 53bb 83da dd3d e5ff 27be b58f a4bd
00000130: 8f12 4b3d d6de a63d 1937 7f3d fe2b bf3d
00000140: 613c 1f3d 9e42 dcbd 4c27 4ebc cb9a 5fbd
00000150: 6888 5b3d 5560 abbd ccc2 8d3d 6410 14bd
00000160: 0b6d 043d ab6d f13d 5bfd 39be 7d24 6a3d
00000170: 9909 9a3d f5bf 14be 2855 853d 7eed 7abc
00000180: ff2f 453d 75be de3c b3a9 93bd 6f66 383c
00000190: e01b 703d a9ea 01be f403 6f3d 8aa7 e9bc
000001a0: c332 df3b 0765 223e 6380 6b3d ffaa 593d
000001b0: a91b 25be b1a2 95bd 2605 963d 7167 bb3d
000001c0: 182b bdbb 837d c83b 62b6 60bd 4b28 f3bd
000001d0: 32bb 023d ecd2 0fbe 5773 9d3d 79eb aebb
000001e0: 511d a53d 6a21 b3bd 526d 123e 6c50 be3d
000001f0: 0b58 ea3d 40ff dbbd 64e8 fc3d 59b9 653d
00000200: 826e f93d 2cf9 5a3d d447 94bd 1228 f0bc
00000210: 3b15 e9bc 6ee6 013e 85bc 283d d574 68bd
00000220: 6b24 293d 78db 393c f3fd 3d3b 8503 cf3d
00000230: 9b41 4a3e 9425 10be 2d29 ad3d 5c72 863d
00000240: 9405 163e 3b5a f63d 3ec3 ed3d 1099 6bbd
00000250: cdae 5e3d 2dcd 953d e84f 643d 103c bebd
00000260: e24f 523c 7d2f afbc 6288 a53d 9d6b 0cbd
00000270: 060a af3d 896b aebd 09b0 b1bd d4cb bdbd
00000280: 0c95 c7bd 49e7 38bd c754 79bd 2dbd 32bd
00000290: e9fc 7a3c 9e19 8f3b 152e b8bd bea8 dfbd
000002a0: ca22 323d a3e1 46bd 2134 ff3c b5d0 eb3d
000002b0: 8559 a7bd 1d50 143d 320f 0b3c abbb 423d
000002c0: bdd2 053e e79f 293e e8ff 0cbe e6ec 103d
000002d0: 6a57 d63d 73d0 f43c 7115 3d3d 939b 823a
000002e0: 6a2f 3fbe 5302 a8ba a51a 45be d256 4b3d
000002f0: e550 953c 4ffa 86bd a8b3 3ebd 72cd 5f3d
00000300: 6459 54bd bf95 2dbe 2f3d a63c 951e abbd
00000310: fe11 fa3d ea49 d8bd 6ab7 853d f3b6 ce3d
00000320: ba97 343b 4027 a93d ae53 923c da18 0f3e
00000330: f12d eebc cd59 3d3c 68b1 2abd ce96 b3bd
00000340: 28f3 96bd 690d 753d c434 e83d 70fa 17be
00000350: b41c 5ebc c995 423d 7762 0cbe 7798 91bc
00000360: 8a51 fdbd 4b7d 933d 64c0 c2bd 1caa e63d
00000370: c728 e8bd 1287 e03d 4ce2 90bd 4782 ae3d
00000380: 1bb8 963d d0d7 4dbd 71e4 b53b 7b12 9c3d
00000390: f008 ff3c db03 103d 6aad b3bb 1506 19bb
000003a0: 7636 353c 5d3d cebd b718 503e 85a6 653d
000003b0: a563 993d b60b c8bd d766 923b a487 88bd
000003c0: 3358 443e 4818 473a 902e ac3c fbf2 f5bc
000003d0: 633b d8bd a34d 8a3e a3ec 3ebe d111 21be
000003e0: 4183 28be ba09 86bd 741c 71bd f363 febb
000003f0: 510e 67ba 50e4 ecbd a876 d7bd 4ac8 91bd

fc1.bias f4 [100]
0.04539264 -0.054690205 0.036902618 0.027640935 -0.03320037 0.03247292 -0.04351593 0.0003580266
-0.02833504 -0.028173307 -0.044295136 -0.013949952 0.059894096 -0.0061419597 -0.008801734 -0.045587156
-0.06398272 -0.0228272 -0.016869845 0.03311326 -0.0122744655 -0.041283503 0.0137090525 -0.053163096
0.045094423 -0.011090501 0.014797094 0.027269263 0.009724656 -0.05159992 0.031258635 0.018215327
-0.05713556 0.008665406 -0.039543603 -0.0010691289 0.010791353 0.0504471 0.040744532 -0.029487599
0.04901703 -0.05284485 -0.034273308 -0.03489564 0.006513001 0.04636735 -0.01002824 -0.04327501
0.03296493 -0.05031156 -0.056665927 -0.050820973 0.047421753 -0.0688042 0.05602994 8.7867644e-05
0.053152848 -0.029519014 0.01060284 -0.010052555 -0.039286386 -0.018544765 0.047863536 -0.040214185
0.016510379 -0.0057616318 0.017444897 -0.0616853 -0.052240714 -0.008546716 0.0011713455 0.03209431
0.04717598 0.047142234 -0.015260352 -0.017904896 0.035345234 0.029587042 0.060485646 0.019613892
0.05684514 -0.014374498 -0.029948208 -0.019219356 0.015609252 -0.047510814 -0.053356994 -0.017037416
0.048575837 0.017829688 0.007632472 0.023038618 0.05690869 0.009075169 0.037640963 -0.01963122
-0.05483844 0.05579441 0.030021349 0.057881244
00000000: a2ed 393d d602 60bd 3327 173d 3e6f e23c
00000010: 1cfd 07bd 5302 053d c33d 32bd 84b5 bb39
00000020: e31e e8bc b5cb e6bc d16e 35bd 578e 64bc
00000030: 8353 753d 7e42 c9bb 2635 10bc 99b9 3abd
00000040: 5f09 83bd 1c00 bbbc a132 8abc c5a1 073d
00000050: d71a 49bc e418 29bd ef9b 603c 8cc1 59bd
00000060: eeb4 383d efb4 35bc 836f 723c ca63 df3c
00000070: 2a54 1f3c 705a 53bd 0e09 003d 4f38 953c
00000080: fa06 6abd 59f9 0d3c 79f8 21bd 0322 8cba
00000090: 37ce 303c 9ea1 4e3d bde3 263d fa8f f1bc
000000a0: 15c6 483d d773 58bd 2b62 0cbd bbee 0ebd
000000b0: 036b d53b b1eb 3d3d 7d4d 24bc 2341 31bd
000000c0: 3c06 073d 7f13 4ebd 881a 68bd a729 50bd
000000d0: 503d 423d 37e9 8cbd a67f 653d 9545 b838
000000e0: cdb6 593d dcd1 f1bc 89b7 2d3c 79b3 24bc
000000f0: c3ea 20bd 31eb 97bc 8e0c 443d a1b7 24bd
00000100: c640 873c 12cc bcbb 9ae8 8e3c baa9 7cbd
00000110: 5cfa 55bd 8607 0cbc d587 993a 5375 033d
00000120: 9a3b 413d 3718 413d 8e06 7abc 4aad 92bc
00000130: 2ac6 103d 8660 f23c ccbf 773d 50ad a03c
00000140: 73d6 683d 0483 6bbc f255 f5bc e971 9dbc
00000150: f3bd 7f3c b39a 42bd dd8c 5abd 0d92 8bbc
00000160: 75f7 463d 910f 923c d119 fa3b 7cbb bc3c
00000170: 1619 693d 05b0 143c 692d 1a3d a7d1 a0bc
00000180: 469e 60bd ae88 643d 55ef f53c e214 6d3d

fc2.weight f4 [50, 100]
-0.1758237 0.13133796 -0.098545484 0.0806814 -0.059749346 -0.012378255 -0.028627003 0.09822221
-0.17874819 0.075647935 -0.116980776 0.028297836 -0.39480555 -0.08569585 -0.17230865 -0.15490352
-0.06576018 -0.08517542 -0.09695405 0.1862452 -0.35071188 0.05798102 0.0950653 -0.019420568
-0.055042334 -0.16349004 0.062763296 -0.17778216 0.24146564 -0.14811736 -0.15384431 0.039772216
0.24269879 0.28782895 0.2592053 -0.060883835 -0.13006493 -0.04748757 0.029314272 -0.059684116
0.10518578 0.05223266 -0.049966697 0.08101883 0.037190802 -0.31755272 -0.12741673 0.13465694
0.3810705 -0.20141886 0.24604179 -0.044575304 0.10601692 -0.09297523 -0.21970043 -0.1018249
0.03817297 0.041621704 -0.00020931874 -0.017283354 -0.0568721 0.09729376 -0.11970006 0.18087436
0.030257417 -0.075260244 0.18834521 0.055513937 0.027244257 0.07248674 -0.12489378 0.0047360174
0.028029226 -0.08574441 0.103421256 0.21313716 0.12363997 -0.02526077 0.011329831 -0.084564514
0.15285061 0.15519665 -0.017892666 0.101073794 -0.028585792 -0.07289748 0.15273212 0.10280653
-0.0127799725 -0.13897128 0.14720792 -0.13490039 -0.13723782 0.1587985 -0.23966889 -0.11641987
0.14319052 0.06335311 -0.05061576 -0.15952389 -0.1443099 -0.07675983 -0.036689207 0.22261994
0.12528817 -0.055947967 -0.09948556 0.14350924 -0.17519966 0.25202152 0.06777224 0.12301433
0.08152647 0.08495635 0.14224766 -0.25942904 -0.0048561096 0.1457875 -0.05021857 0.046234526
-0.037711263 0.07655729 -0.08587383 -0.028865336 -0.11258461 -0.08186493 -0.10366294 -0.07611172
0.0017578531 -0.029070046 0.12776838 -0.14517766 -0.10831264 -0.15842381 -0.26235852 -0.11109812
0.103489086 -0.21151856 0.053432316 -0.030846778 -0.182012 -0.15262347 0.045178823 -0.1539879
0.20953943 0.10230367 -0.09899933 -0.020658307 -0.13988279 -0.20822763 0.13529576 -0.14814955
-0.2168282 -0.18871702 -0.113450676 0.26847327 -0.109589055 -0.1186985 -0.11756642 -0.21665446
-0.12617466 0.2502324 -0.16319962 0.01212403 0.052751236 0.32626516 -0.21934037 -0.10465001
0.020382443 -0.26304597 -0.007821947 -0.12011877 -0.00481598 0.16858464 -0.072820336 0.08821355
0.22332273 -0.12994707 -0.05146128 -0.034176663 -0.039248634 -0.016593652 -0.5210212 -0.22192834
-0.017461114 -0.0612972 -0.003710693 0.11846265 0.16995914 0.011003899 0.21152937 -0.16693121
0.042466223 -0.0365343 0.2327266 -0.15224795 0.023419697 -0.058931824 -0.027825393 0.27458122
0.055405054 0.004197236 -0.08157909 -0.11673096 -0.08663192 0.18622051 0.057031654 -0.18583459
-0.054813903 -0.10464962 0.0052375006 -0.10127165 0.0104648685 -0.20158102 0.0154681215 0.17296243
-0.16194275 -0.028899314 -0.09522294 -0.078204796 -0.0068441764 0.019149581 -0.05611347 0.13317692
-0.14066066 -0.066696085 -0.29246378 0.25198403 -0.09278986 0.0018192126 -0.11798782 -0.18466474
0.124214046 0.113694854 0.05902839 -0.04050873 -0.031682126 -0.123816244 -0.10520184 0.14036842
0.009455388 -0.26663065 0.009784417 -0.033766538 0.03849097 0.073669836 0.16795439 0.06388877
0.07415799 -0.19776466 -0.09417377 0.18052012 -0.2681992 0.042653944 -0.08933051 -0.24350993
00000000: 210b 34be 757d 063e 37d2 c9bd 4a3c a53d
00000010: bbbb 74bd 2ace 4abc 2d83 eabc ba28 c93d
00000020: c409 37be 4eed 9a3d 9e93 efbd ddd0 e73c
00000030: f423 cabe 4e81 afbd ae71 30be 079f 1ebe
00000040: 46ad 86bd 7370 aebd d88f c6bd 10b7 3e3e
00000050: 8290 b3be 827d 6d3d 99b1 c23d e217 9fbc
00000060: 1274 61bd ef69 27be 0b8a 803d 870c 36be
00000070: c542 773e 14ac 17be 5d89 1dbe 31e8 223d
00000080: 0886 783e 515e 933e 8fb6 843e 5461 79bd
00000090: be2f 05be 5482 42bd 7c24 f03c 5577 74bd
000000a0: a46b d73d eaf1 553d e1a9 4cbd 33ed a53d
000000b0: 6255 183d 4596 a2be 8879 02be 82e3 093e
000000c0: ac1b c33e bf40 4ebe 61f2 7b3e 9894 36bd
000000d0: 661f d93d cc69 bebd 26f9 60be 9389 d0bd
000000e0: 435b 1c3d 857b 2a3d 927c 5bb9 d295 8dbc
000000f0: b8f2 68bd f341 c73d 4e25 f5bd 2137 393e
00000100: 67de f73c 0b22 9abd 91dd 403e 9562 633d
00000110: 592f df3c ee73 943d 4fc8 ffbd 9830 9b3b
00000120: 8c9d e53c c49a afbd 86ce d33d a140 5a3e
00000130: f436 fd3d adef cebc c1a0 393c 2930 adbd
00000140: df84 1c3e dfeb 1e3e a493 92bc c7ff ce3d
00000150: c02c eabc 464b 95bd cf65 1c3e 3b8c d23d
00000160: 1763 51bc 7d4e 0ebe acbd 163e 5423 0abe
00000170: 1288 0cbe 139c 223e c36b 75be 8a6d eebd
00000180: 89a0 123e 46bf 813d 7952 4fbd 3b5a 23be
00000190: f9c5 13be 4234 9dbd 6c47 16bd 7bf6 633e
000001a0: 8b4b 003e b229 65bd 16bf cbbd 16f4 123e
000001b0: 8a67 33be f708 813e 2ccc 8a3d f0ee fb3d
000001c0: 5af7 a63d 98fd ad3d 5fa9 113e e2d3 84be
000001d0: 0020 9fbb 5249 153e fdb1 4dbd 6a60 3d3d
000001e0: 2077 1abd 12ca 9c3d 9ede afbd ff76 ecbc
000001f0: c392 e6bd cda8 a7bd 3c4d d4bd 76e0 9bbd
00000200: c367 e63a 4e24 eebc b7d5 023e 74a9 14be
00000210: 04d3 ddbd da39 22be db53 86be 6987 e3bd
00000220: 16f2 d33d 5298 58be d8db 5a3d 62b2 fcbc
00000230: 5b61 3abe 5449 1cbe 6e0d 393d 01af 1dbe
00000240: 8191 563e 9684 d13d 29c0 cabd 9c3b a9bc
00000250: 6f3d 0fbe a039 55be f98a 0a3e 84b4 17be
00000260: 3608 5ebe 093f 41be d458 e8bd 5475 893e
00000270: 3a70 e0bd 3318 f3bd aac6 f0bd abda 5dbe
00000280: ee33 01be 761e 803e cd1d 27be dea3 463c
00000290: ae11 583d 3a0c a73e c39a 60be bf52 d6bd
000002a0: 15f9 a63c f6ad 86be a027 00bc d400 f6bd
000002b0: 5ecf 9dbb 74a1 2c3e d422 95bd 4ea9 b43d
000002c0: b7ae 643e d810 05be 10c9 52bd d4fc 0bbd
000002d0: 2dc3 20bd 69ef 87bc a561 05bf 2f41 63be
000002e0: 9c0a 8fbc c612 7bbd 192f 73bb 8c9c f23d
000002f0: c509 2e3e b349 343c 289b 583e 04f0 2abe
00000300: 10f1 2d3d fda4 15bd e24f 6e3e e3e6 1bbe
00000310: aada bf3c 7f62 71bd 14f2 e3bc e995 8c3e
00000320: 69f0 623d f888 893b f012 a7bd a410 efbd
00000330: 136c b1bd 97b0 3e3e 069a 693d 6c4b 3ebe
00000340: 8b84 60bd 8a52 d6bd 579f ab3b 8367 cfbd
00000350: d774 2b3c 416b 4ebe 016e 7d3c 101d 313e
00000360: 52d4 25be 41be ecbc 3f04 c3bd d629 a0bd
00000370: 1d45 e0bb 95df 9c3c 3dd7 65bd 885f 083e
00000380: 5909 10be f597 88bd d0bd 95be 0d04 813e
00000390: 9c08 bebd a572 ee3a 99a3 f1bd c118 3dbe
000003a0: ef63 fe3d d9d8 e83d c1c7 713d 7bec 25bd
000003b0: 1ec5 01bd 5f93 fdbd 1074 d7bd bdbc 0f3e
000003c0: c6ea 1a3c d083 88be d24e 203c c84e 0abd
000003d0: b5a8 1d3d 36e0 963d 3cfc 2b3e 1ed8 823d
000003e0: 25e0 973d d282 4abe 2dde c0bd 44da 383e
000003f0: 6851 89be e7b5 2e3d eaf2 b6bd ab5a 79be

fc2.bias f4 [50]
0.031301636 -0.078393646 0.02378206 -0.035081886 0.114432655 -0.07727484 -0.058876313 -0.085256934
-0.18460196 0.020410804 -0.023314826 -0.17744657 0.037362903 -0.10300558 0.108751 -0.101056635
-0.10453497 -0.0047141137 -0.10278331 0.07495866 0.08125208 0.002217293 0.070310205 -0.04243123
0.021610344 0.044504914 -0.07470104 0.04637467 0.19382721 -0.0867392 -0.09693741 -0.049500845
-0.023351846 -0.0801454 0.0617915 0.03504411 -0.19326515 0.13003403 -0.018766617 0.15662979
-0.049423203 -0.05488102 0.040703986 0.050035466 0.051231243 -0.013172111 0.05108563 -0.022552205
0.14090194 0.044163343
00000000: 2536 003d d98c a0bd 98d2 c23c 06b2 0fbd
00000010: ab5b ea3d 4542 9ebd 4a28 71bd 309b aebd
00000020: 4c08 3dbe 8f34 a73c bcfe bebc 8eb4 35be
00000030: d809 193d 97f4 d2bd d8b8 de3d c8f6 cebd
00000040: 6e16 d6bd da78 9abb 0e80 d2bd ed83 993d
00000050: 7e67 a63d 0150 113b ccfe 8f3d 5fcc 2dbd
00000060: 2d08 b13c c94a 363d dcfc 98bd 5ef3 3d3d
00000070: a47a 463e 52a4 b1bd 1f87 c6bd 66c1 4abd
00000080: 5f4c bfbc 4523 a4bd 1519 7d3d 6a8a 0f3d
00000090: 4de7 45be a427 053e 73bc 99bc 8f63 203e
000000a0: fc6f 4abd ecca 60bd 39b9 263d fdf1 4c3d
000000b0: dad7 513d d6cf 57bc 2a3f 513d 67bf b8bc
000000c0: 9948 103e 9fe4 343d

fc3.weight f4 [1, 50]
-0.5346798 0.70944923 0.45721257 0.46441093 0.7023997 -0.43686473 -0.543068 -0.54464585
-0.4657354 0.5387429 0.6657146 0.72426635 0.30177832 -0.58664155 -0.35270652 -0.43319893
-0.51357955 -0.38728997 -0.6055998 0.39582753 0.4075794 -0.34275433 0.4551966 -0.6182078
0.3067984 0.65635955 0.5926715 -0.5176326 0.6783152 -0.41889036 -0.6550183 -0.5973672
-0.7318866 -0.532683 0.51262635 -0.37813437 -0.6650782 0.50774574 -0.37358913 0.48692086
-0.5349871 0.75681317 0.39282346 -0.316815 0.46613386 -0.5857449 -0.3801508 -0.83980846
0.5126635 -0.25996524
00000000: c6e0 08bf 779e 353f c417 ea3e 45c7 ed3e
00000010: 77d0 333f bcac dfbe 8106 0bbf e96d 0bbf
00000020: df74 eebe 0eeb 093f 466c 2a3f 8569 393f
00000030: b082 9a3e 242e 16bf f395 b4be 40cc ddbe
00000040: f379 03bf df4a c6be 9708 1bbf e8a9 ca3e
00000050: 3fae d03e 7f7d afbe 870f e93e de42 1ebf
00000060: ae14 9d3e 2e07 283f 52b9 173f 9283 04bf
00000070: 11a6 2d3f cc78 d6be 48af 27bf 0fed 18bf
00000080: ec5c 3bbf ea5d 08bf 7b3b 033f d49a c1be
00000090: 9142 2abf a0fb 013f 1347 bfbe b14d f93e
000000a0: eaf4 08bf 82be 413f 2820 c93e 9335 a2be
000000b0: 19a9 ee3e 61f3 15bf 20a3 c2be b0fd 56bf
000000c0: ea3d 033f 2a1a 85be
