method/mymodel-captions/save/1616871925/dis_model_params.pkl (torch, 125505 bytes, 5 tensors)

fc1.weight f4 [100, 256]
00000000: ecda 47bd 1db3 0bbd 98f5 8d3d e46d 93bd
00000010: eeb5 a93d b625 553d ac18 383d 6700 aa3d
00000020: 42f7 be3c 924b 7bbd ea3b b2bc 4388 913d
00000030: 8eec f03c 94f7 e33a 7b32 10bd 9fe9 cdbc
00000040: 101b 35bc 59d9 e3bd b1ed 9e3c 4fe6 393c
00000050: 9d97 2e3d 8529 433d 73f0 43bd 587d 6f3c
00000060: 6c81 ed3d 6cbf 0cbd 7ea6 54bd ec0b 213d
00000070: 07dd 00ba 45c0 87bd 5a40 febd 3869 c2bd
00000080: 6ca0 8f3c 3586 883b fb88 a23d fd5a 4ebd
00000090: a515 26bd 43bb 90bc db55 8e3d ea43 823c
000000a0: c627 513d 76e0 c73c 9e2c 173d 9455 8b3d
000000b0: 5e47 e03d 1575 8b3d a525 203d 5183 a33c
000000c0: 7a87 293d 9a76 ad3d e931 723d e8ea 80bc
000000d0: cd98 7e3c ec1f 5fbc f7d1 8c3d 3222 80bc
000000e0: fe44 d63d 6419 e0bd 3d82 89bc 6b3d d9bc
000000f0: 61c7 83bd 1862 0ebc 18a9 303d 9f3d 41bd
00000100: 5993 47bd bebc 9bbc fd8a a9bd 8627 0d3d
00000110: ad51 2bbd 235c 2e3d cb27 5ebd 8481 c03c
00000120: 06b4 a5bc 6191 19be ebf8 473d 01a5 d03d
00000130: 6254 89bc 28f9 6dbd 9a30 473c e6a6 20bc
00000140: cdc7 5ebc f48c 2cbb d3c3 0a3d 4145 b23d
00000150: d301 b93c dad0 7c3d 38cd 10bd 9326 2e3d
00000160: 563b 8dbc 39af 3bbd 1927 ed3c 2799 593d
00000170: d03e 653c 7e34 52bc 7682 d3bc 6720 99bd
00000180: 4b41 14bd b076 9cbd 7872 3a3c 3e4c 233d
00000190: 7368 9a3d 6cd1 0d3d a857 10bc 6144 acbd
000001a0: bd17 4bbd e5bd c43d b99a 73bd 93e7 ec3d
000001b0: 3b9c 12bd ffbf 0fbd 34e6 28ba ffa9 8bbc
000001c0: b3cd 943d d744 9fbd b755 d33d 6798 693d
000001d0: 821f 89bd fc94 d63c 539c 213d 4a9e 7bbd
000001e0: dbb4 593d 08f6 8a3c 4170 863d ffdc a13d
000001f0: 1068 0c3d 2c9e 36bd 0eb4 d9bc 0799 8a3b
00000200: 6abf 9fbd 13ae c73c 356f 48bd 43bf 40bc
00000210: c4cf 8abd bb67 96bd 8900 d9bd f9c0 953d
00000220: 2ddc 0cbd ca5b d73c c4bd 57bd 1681 573c
00000230: ac95 633c 74bf e03b 9380 9e3d ae21 e2bc
00000240: 91c0 1c3a b394 3dbd 9756 23bd a0e1 16bc
00000250: ceee 04bd 20fe 083d 0a61 a0bd 6190 10bd
00000260: edb1 a63b 3480 9e3d d20d 80bd 9ef1 4a3d
00000270: 26eb 43bd b71a 5f3c b962 95bd e810 c33d
00000280: 3b08 4bbd b7c6 3ebd 374a b0bd f63c 34bd
00000290: 5608 1abc 9e4d 37bd 4c36 4c3d 8f4d 883c
000002a0: 37e3 e83c 90fe 853c e1ae 1dbc e76f f73b
000002b0: 7c8d 763d 13e9 013c 234c abbd 860c 8ebc
000002c0: ce64 5b3c 6701 abbb cce4 a2bd 8fc4 c73b
000002d0: c3ca 953d 8804 d2bc 4376 94bb d6e1 943d
000002e0: 9fba 933d 6157 0dbd d4c5 8e3d 6802 623c
000002f0: d6b8 a8bd a19f 74bb f5f0 96bc e1f4 623d
00000300: 419b 8ebd beee 883d 91a4 1dbd c67f 733c
00000310: 60b8 e83c 60ed 8cbd c85e 9e3d 858d b73d
00000320: a138 f43c 4cce 763d d830 b63d ff23 353c
00000330: 16f4 2dbc 78ed 453c 00da b13b c831 2bbd
00000340: 09b7 493c f8f1 3cbd ae17 89bc 0140 a8bb
00000350: 391a 333b efaf 89bd a997 0dbc e315 e83c
00000360: 8cc4 21bd f660 b5bc 6b31 073e 53eb 343c
00000370: 8d4b 853d d61a 4f3d 61d3 9abd 627c 493d
00000380: dc6c d23a 7544 f03c 03c4 653c 195f 093d
00000390: ef73 00bd 23fc 043c 3d39 8abd 2229 83bc
000003a0: bfc7 a83a 5864 373d 4b59 323d c72c 303c
000003b0: 4703 803d 17e1 abbd 2f8b 1ebc 42c1 493d
000003c0: 2f20 ef3b 50a9 083b 1006 f6ba 1251 43bd
000003d0: 305a 50bd 889e 4f3d 8bd7 43bd edb1 dcbd
000003e0: 3edf e9bc 2fb6 653d 1976 26bd 48f5 6abd
000003f0: 5c35 9abc 940c c9bc 421d 343d 2f0b 1e3c
-0.048792765 -0.034106363 0.06931609 -0.07198694 0.082866535 0.052037917 0.044945404 0.08300858
0.023311261 -0.061351366 -0.021757085 0.07106068 0.029409673 0.001739251 -0.035204392 -0.025135813
-0.0110538155 -0.1112544 0.01940045 0.011346414 0.04262506 0.047647018 -0.047836732 0.014617287
0.11596951 -0.03436224 -0.05191659 0.03931801 -0.0004915748 -0.066284694 -0.12414618 -0.09492725
0.01753255 0.0041663893 0.07936283 -0.050379742 -0.040547986 -0.017667418 0.069499694 0.015901525
0.05106332 0.024399024 0.036907785 0.06803432 0.10951112 0.06809441 0.0390984 0.019960077
0.041388966 0.08469887 0.05912963 -0.015737012 0.01553936 -0.013618451 0.06875985 -0.015641306
0.10462378 -0.10942343 -0.016785735 -0.026518544 -0.06434513 -0.00869038 0.04313001 -0.047177907
-0.048724506 -0.019010898 -0.08278463 0.03446152 -0.04182594 0.042568337 -0.05423717 0.023499258
-0.020227443 -0.14996864 0.04882137 0.10187722 -0.01676387 -0.058098942 0.012157584 -0.009805417
-0.013597441 -0.0026329132 0.03387816 0.087046154 0.022583878 0.061722614 -0.03535196 0.042517256
-0.017240208 -0.045821402 0.028949307 0.053124573 0.013992026 -0.012829898 -0.025819045 -0.074768834
-0.03619508 -0.07639825 0.011379831 0.039867632 0.07539453 0.03462355 -0.008809961 -0.0841148
-0.049583185 0.09606532 -0.059473727 0.11567607 -0.035793524 -0.03509521 -0.00064429943 -0.017048834
0.072657965 -0.07776802 0.10319083 0.057030108 -0.06695463 0.026194088 0.039455723 -0.061430253
0.053150993 0.01696302 0.065643795 0.0790348 0.03427893 -0.04458444 -0.026575115 0.004229668
-0.07800181 0.024374997 -0.04893418 -0.01176435 -0.067779094 -0.07344004 -0.10595805 0.07312197
-0.034389663 0.026288886 -0.05267121 0.013153335 0.013890665 0.0068587605 0.07739367 -0.02760395
0.00059796224 -0.04628439 -0.0398775 -0.009209067 -0.032454304 0.033445477 -0.07831009 -0.03529394
0.0050871284 0.077392966 -0.06252636 0.04954683 -0.047831677 0.013617209 -0.072942205 0.09524709
-0.049568396 -0.046576228 -0.08607905 -0.04400345 -0.0094014015 -0.044751756 0.04985647 0.016638545
0.028428657 0.016356736 -0.009624214 0.0075511816 0.060193524 0.007929104 -0.08364131 -0.017339956
0.013390733 -0.005218673 -0.07953796 0.0060964297 0.07314064 -0.025636926 -0.0045306995 0.07269637
0.072133295 -0.03450716 0.069713265 0.013794519 -0.0823838 -0.0037326592 -0.018425444 0.055409316
-0.06963206 0.066861615 -0.03848702 0.0148620065 0.02840823 -0.06881213 0.07732922 0.089625396
0.029812159 0.060255334 0.08896035 0.011055945 -0.010617277 0.012080543 0.005427599 -0.041795522
0.012311705 -0.046129197 -0.016734924 -0.005134583 0.0027328862 -0.0672301 -0.008642116 0.028330749
-0.039494082 -0.022140961 0.13202445 0.011042434 0.06508551 0.050562702 -0.075598486 0.049190886
0.0016054171 0.029329518 0.014023784 0.033537958 -0.031360563 0.008116755 -0.067491986 -0.016010825
0.0012876912 0.04477343 0.043542188 0.010752863 0.06250625 -0.08392542 -0.009676739 0.04925657
0.0072975378 0.0020852871 -0.0018770117 -0.047684737 -0.05086726 0.050688297 -0.04781298 -0.10776124
-0.028548833 0.056081947 -0.04063997 -0.057362825 -0.018824272 -0.02454213 0.043973215 0.009646221

fc1.bias f4 [100]
00000000: 634d ab3b b3a0 b2bd 219b 87bc 1d90 bf3c
00000010: 8d37 413c ac1a 483c 6f26 d8bc ace7 3abc
00000020: 9eec dabc d6a4 943c 947e c6bb f0f7 b3bc
00000030: db96 343d 65ec 89bc 5115 00bd e985 4c3d
00000040: 43bb 02bd 71ae 013d c17e c8bd 9715 143d
00000050: 36a7 c93d d109 a93c f275 823c d554 63bd
00000060: 9200 3cbd 33b0 9ebd 914a a4bc 51bc 8cbc
00000070: a5a2 1bbd 5bc8 133d 48d8 fb3c d8e1 9abd
00000080: e740 89bd f40b 993c 2e01 3f3d 921d 4dba
00000090: 9696 043c f072 003d b303 34bd ddde 593b
000000a0: 6e10 fc3c a945 bd3c d6fa 793d 28c8 7c3c
000000b0: ea35 7dbd 6b37 73bd 2ff0 553c d9a1 2e3d
000000c0: e457 cd3c ef2a 3d3d 8891 743b 47fa 04bd
000000d0: 4ab3 ccbb 3be7 7f3d 90e2 343d ce02 38bb
000000e0: f4fc 19bd 6273 e4bc 1087 4d3d 2b95 4bbd
000000f0: cc3e 1b3c b314 16bd c4e2 be3d b2c8 4dbd
00000100: 3e6c 4fb9 e684 68bc 71a1 7f3c 30cf a0bd
00000110: bc85 5bbd 98b0 e83b 2a1b 94bd 712f 253c
00000120: e76c 75bd 8cf1 9f3c 0892 b53c 5763 9fbd
00000130: a444 efbb 6cbf 653c a113 7bbd ff7a 1f3d
00000140: c235 1f3d 1c4d 5fbb c030 dabc e348 9d3b
00000150: d761 1dbd b8cc 6f3d 4fe3 4f3c 8561 033d
00000160: 15c7 8b3b 071c 803d 765f 5dbb 99b0 083d
00000170: 6bbb 5e3c d099 4b3d f481 fdbc 8090 213d
00000180: 3da4 f3ba 15ea acbd d1a0 b13c 7790 d8b9
0.005227731 -0.08722057 -0.016553463 0.023384148 0.0117930295 0.01221339 -0.026385514 -0.011407774
-0.026724156 0.018145006 -0.0060575698 -0.021968812 0.04408918 -0.016836355 -0.03127033 0.049932394
-0.031916868 0.0316605 -0.097898014 0.036153402 0.09846346 0.020634564 0.015925381 -0.055500824
-0.04589898 -0.07748451 -0.020055087 -0.01717964 -0.037996907 0.036079746 0.03074278 -0.075626075
-0.06701832 0.018682458 0.046631984 -0.0007824536 0.008092543 0.031359613 -0.04394884 0.003324441
0.030769553 0.023104506 0.06103023 0.01542858 -0.061818995 -0.059379023 0.0130577525 0.04263482
0.025066324 0.046183523 0.0037318189 -0.032465246 -0.006246959 0.062476378 0.04416138 -0.0028077844
-0.03759475 -0.02788705 0.050177634 -0.049702805 0.009475421 -0.036640834 0.09320596 -0.050240226
-0.00019781382 -0.014191842 0.0156024555 -0.07852018 -0.053594336 0.0071011297 -0.07231744 0.010082112
-0.05991831 0.019524358 0.02216436 -0.077826194 -0.007301884 0.014022689 -0.061298016 0.038935658
0.038869627 -0.003407306 -0.026634574 0.0047999485 -0.038423385 0.058544844 0.012688472 0.032075424
0.004265676 0.06255346 -0.0033778823 0.03337154 0.013594489 0.049707234 -0.030945756 0.039444447
-0.0018588376 -0.08443085 0.021683129 -0.00041306365

fc2.weight f4 [50, 100]
00000000: 0f95 bf3c 7abf 2abe 83f6 bf3d cfc5 583c
00000010: 7eea 8b3d 4711 b33d bb11 093e 8189 803c
00000020: beea 8fbd 11ce 803d 93f6 0f3e b2f1 44bc
00000030: 113d a2bc d6d1 1a3d 696e e5bd 540e 1f3d
00000040: 4c9c df3c 128c adbc 4be0 0abe d1c3 e13b
00000050: 1cbf f23a 5a14 c13d 3e7f 63bd c267 053c
00000060: 340a 7d3d bf90 f4bd 2aaa e33b dadb 99bb
00000070: 5fcf ae3c aa1f 8c3d 52f2 883c 506c 00be
00000080: fe2b 35be 3318 8cbd 4760 523d 5dbe 513d
00000090: 827c a8bc e24c 26bd d92d 0a3c 391a 8a3c
000000a0: 6778 953d e8b5 343d b2eb 663d fb8f 9c3d
000000b0: 33f0 f53d 4d7c 2dbd 3b1d d3bd 7764 b13d
000000c0: 1720 14be 151d 7dbd 61f7 2a3d 8841 d53d
000000d0: 49a7 313d ea7a a93c 77c1 163e b80d 07be
000000e0: 0530 12bd 5e66 683d 538b 953d f4ff 6ebc
000000f0: 0e56 863c 4d57 b73d 11ff f5bc 89e6 06bd
00000100: 51dd d13d f5fc 6ebd 3d65 82be afe0 0dbe
00000110: dcbc ddbc b902 10be bd3d 0bbe a326 383e
00000120: 7537 b4bd d76c a0bc dfd8 2a3e 5b76 97bd
00000130: 3c65 1dbd 6dcd ec3c 1d5a d2bc bc41 54bc
00000140: b5a1 c43d dc82 533d 489c 01bd 6621 f53c
00000150: 420b 913d 93b5 7ebd 7101 3e3e dd3a b53d
00000160: 2cd1 433d 5630 5d3d 584f ce3c f7bb 98bc
00000170: 5f15 01bd cab7 bebd 874f 7fbd 0e8b 7dbd
00000180: 53ad 5f3d 7ff4 ab3c 8721 bcbd e343 dabc
00000190: f9b6 d93a 33eb 063e a40a d7bd f206 79bd
000001a0: d1e2 483d 856b 7b3d f04d a1bc 5d9e c2bd
000001b0: 6ed4 863d b678 43bd f09e b4bd 92cc ebbd
000001c0: 7cdf 78be 0b44 93bc e1d2 313d a8f0 92bd
000001d0: efea b1bd cc1c 343d a062 013e 97a9 08be
000001e0: 828a 97bd fd7a d6bd 3f5b 13be 6115 1dbe
000001f0: a381 c8bc 6cf5 bbbd 817b a43d 6954 883d
00000200: 15b1 21be 12c1 dfbd 7f0f 9a3c d611 423d
00000210: f9a0 333e 4032 3e3d 556c 253b 06f1 093d
00000220: c8fb 0fbe f230 843b d9e0 553c f015 84bd
00000230: fa9b 943b 2525 5c3d a739 9bbc 1f0c 093e
00000240: c678 73bd caff 98bd a6cc ab3d 27d2 f1bc
00000250: 661f 8dbd 8ff3 cabd 021c 6ebd 3522 323d
00000260: c2fc d93d 8941 0f3c 0643 57bd 6d34 723d
00000270: 0715 37bd 1c6a aebb 5434 523d eaa2 013d
00000280: e081 ea3c d3b0 8ebd e094 86bd b9dd a73c
00000290: ea07 ec3c 5f4c 053e 080e d53d 5f00 033e
000002a0: a094 d1bc 9dd2 51bc bba2 083d 99d1 a1bd
000002b0: be18 263e d8b0 633c c643 bb3d ae65 9c3d
000002c0: 2ff7 5ebd 28e6 353e 4e7d f13a 69b1 6bbd
000002d0: 17e6 72bd d8a3 2dbd 2ba4 863d aa50 4d3e
000002e0: 0e97 72bc ac49 acbc 7b27 c33d 3741 53bd
000002f0: bfd8 f63b f802 213c 067b 65bd 4d03 2e3c
00000300: ba17 6a3d edb8 803d 370d c03c bb22 70bd
00000310: b8b2 65bd 42d3 1b3e a436 e83d b9cc 7e3c
00000320: ee95 96bd 391c 653d d903 f13b 0829 3ebe
00000330: 7253 263e d6e7 76bd e320 3e3d 857f a1bd
00000340: 22b2 87bd 0f4e b13d d7d3 12be a53a 86be
00000350: 261d f13d 5b89 3a3e 4ccb 173e be32 abbd
00000360: 5f62 d93c 65a5 b83d aef2 e7bc fb89 0c3e
00000370: 95c4 823d a2e7 723e 114f a03d 2da8 e73d
00000380: af57 08be 447d 5b3d 3eca 143e 9a1f a1bd
00000390: cbd4 d1bb abce 0d3e 5559 323a 2205 b23d
000003a0: d24c 6fbe 624e 0fbe 7840 0d3e e262 2cbd
000003b0: 8277 70bc 17be bd3d 381f 67bd 05c8 38bd
000003c0: ba88 46be b880 113d 7275 0e3e 72f7 babd
000003d0: 97cc 8bbd 17bb 1abd fb93 393d 3dec 2dbd
000003e0: 3665 89bd 03d7 babc b794 e2bd aadf 003d
000003f0: bd3d 03be 807a 16be 72f4 393e c669 0a3d
0.023386506 -0.16674605 0.0937319 0.013230755 0.06831835 0.0874353 0.1338567 0.015690567
-0.070271954 0.06289304 0.14058904 -0.012020515 -0.01980451 0.03779777 -0.112027 0.038832024
0.027296208 -0.021184955 -0.13562123 0.006889798 0.001852009 0.0942771 -0.05554127 0.008142414
0.06177731 -0.119416706 0.0069477754 -0.004695398 0.021339117 0.06841977 0.01671711 -0.12541318
-0.17692563 -0.06840553 0.05136135 0.051206935 -0.020567182 -0.040600665 0.0084337825 0.016858207
0.072983555 0.04411879 0.05637712 0.076446496 0.12008705 -0.04235487 -0.1030831 0.0866174
-0.14465366 -0.061795313 0.041739825 0.1041289 0.043372426 0.020688493 0.14722238 -0.13188827
-0.035690326 0.05673825 0.073019646 -0.014587391 0.016398456 0.08952198 -0.030028852 -0.0329347
0.10247291 -0.058346707 -0.25467864 -0.13855241 -0.027067594 -0.14063539 -0.1359777 0.17983489
-0.0879964 -0.019583149 0.16684292 -0.073956214 -0.038426623 0.028906548 -0.025677735 -0.012955125
0.09601156 0.05163847 -0.031643182 0.029923152 0.070822254 -0.06218488 0.18555237 0.08849118
0.047806904 0.054001175 0.025184318 -0.018644316 -0.03151452 -0.09312399 -0.062331703 -0.06190019
0.054608654 0.020990608 -0.09186082 -0.026643699 0.0016610316 0.13175659 -0.105000764 -0.06079764
0.049044434 0.061381835 -0.019690484 -0.09502862 0.065834865 -0.04772254 -0.088193774 -0.11513628
-0.24304003 -0.017976781 0.043414 -0.07174808 -0.08687388 0.043972775 0.12635279 -0.13345943
-0.07399465 -0.10472677 -0.14390276 -0.15340187 -0.024475878 -0.0917767 0.08031369 0.06656725
-0.15790208 -0.10925497 0.018806217 0.04738029 0.17541875 0.04643464 0.0025241573 0.033677123
-0.1406089 0.004034155 0.013054096 -0.06449497 0.0045351954 0.05374636 -0.01894839 0.1338353
-0.05944135 -0.07470663 0.08388643 -0.029519154 -0.068907544 -0.09909736 -0.05813218 0.043489654
0.10643913 0.008743652 -0.052554153 0.05913203 -0.044697788 -0.005322708 0.051319435 0.031649508
0.028626382 -0.0696732 -0.065713644 0.020491468 0.028812367 0.13017415 0.10403067 0.1279311
-0.025583565 -0.012806562 0.033358317 -0.07901306 0.16220376 0.013897143 0.09143786 0.07636581
-0.05443495 0.17763579 0.0018424185 -0.05754224 -0.059301462 -0.04239258 0.06574281 0.20050302
-0.014806522 -0.021031223 0.09529015 -0.051575866 0.0075331624 0.009827368 -0.056025527 0.010620904
0.057151534 0.06285272 0.023443801 -0.05862687 -0.056078643 0.15217307 0.11338547 0.015551739
-0.073528156 0.05593512 0.007355195 -0.1857034 0.1624277 -0.06027969 0.046418082 -0.078856505
-0.06625773 0.086574666 -0.14338623 -0.26216617 0.11773138 0.1821646 0.14823645 -0.08359288
0.026536165 0.090159215 -0.02831396 0.1372451 0.06385151 0.23721173 0.07827581 0.11311374
-0.13314699 0.05358626 0.14530274 -0.07867356 -0.0064035407 0.13848369 0.00068034726 0.08692385
-0.23369148 -0.13994744 0.13794124 -0.04208649 -0.01467693 0.092647724 -0.056426257 -0.04511263
-0.19388095 0.035523146 0.1391199 -0.09129228 -0.06826132 -0.03777608 0.04530714 -0.042461623
-0.067087576 -0.022807604 -0.11063521 0.031463303 -0.1281652 -0.14695168 0.18159655 0.03379228

fc2.bias f4 [50]
00000000: c0ca 87bc e616 f0bd 9102 6f3d d4af 82bc
00000010: 36e1 093d a469 0bbe 6622 da3d 4d0d 703d
00000020: bc5b c63d c1d3 4339 c263 ab3c 6af1 893d
00000030: d16b febd b089 16bc c103 423d 0fec 963c
00000040: 7498 c43d 9f46 c2bd 620f 633d af8c c9bc
00000050: ad4f 02bd ce0a fd3c f2e9 0b3e cd25 d73d
00000060: c765 8d3b 2ffe 9e3d 3978 fabd 95d7 b7bd
00000070: 0812 8d3a bff8 a93d a9c5 263d e176 a53d
00000080: ec85 553d 8f87 0d3e 7ab3 2dbd f957 4cbd
00000090: 0f29 8bbd 5d85 7e39 d33c 35b9 a144 cebc
000000a0: 9544 85bd 3f10 43bd 666b bc3c a2f5 6b3c
000000b0: 1ca7 093e 2a8c 58bd bef8 a53c 59aa 06bc
000000c0: c5dd 9739 6644 49bd
-0.01657617 -0.117231175 0.058352057 -0.015952982 0.033662044 -0.13614517 0.10651092 0.058606435
0.09685466 0.00018675534 0.020921592 0.06735499 -0.12422908 -0.009188101 0.04736686 0.018423108
0.095993906 -0.09486126 0.055434592 -0.024603216 -0.031814266 0.030888941 0.13663462 0.10505257
0.0043151113 0.077633254 -0.12229962 -0.08976666 0.001076282 0.08299398 0.040715847 0.08079315
0.05212967 0.13821243 -0.04240749 -0.049888585 -0.06794941 0.0002427301 -0.00017284164 -0.02517921
-0.065072216 -0.047622915 0.02300043 0.014401825 0.13442653 -0.052868046 0.020260211 -0.008219325
0.00028966196 -0.049137495

fc3.weight f4 [1, 50]
00000000: 5ad4 60be 7b6c 703e fa54 e4be 9607 ad3e
00000010: 50d1 96be 1f4c 833e 6a13 a7be 4f4e b1bd
00000020: 4d1b aabe 3243 9cbe 858d b2be b090 a8be
00000030: da0d ab3e 92ca d8be 18d4 bbbe 89e0 a53e
00000040: 26fd e8be 0fde c53e 4fba ed3e 115d cb3e
00000050: 8727 8e3e 1484 053f 6643 68be 71de 95be
00000060: 8ec6 01bf 5b60 ecbe 914b 153f b7c3 003f
00000070: 319e 943e 49dd 93be 6e80 00bf f680 7fbe
00000080: 41ad c7be 5837 babe 7a40 9dbe f51b d9be
00000090: 514b cd3e 69bc dd3e 6ca3 9dbe cd97 7d3e
000000a0: a119 1a3f 5d51 083e f2fb 9fbe 316f febe
000000b0: 385e e7be 45b6 c2be 091d fb3e 12fd bcbe
000000c0: b8a8 933e bf2f 053f
-0.21956006 0.23478882 -0.44596082 0.3379485 -0.29456568 0.25644013 -0.32632 -0.08657514
-0.33223954 -0.30520016 -0.34873596 -0.32922888 0.33409005 -0.4234205 -0.36685252 0.3239787
-0.45505637 0.3864598 0.46431205 0.39719442 0.27764532 0.5215466 -0.2268196 -0.29271272
-0.50693595 -0.46167263 0.5831843 0.5029864 0.2902694 -0.28879765 -0.5019597 -0.24951538
-0.3899937 -0.3637035 -0.30713254 -0.42404142 0.40096524 0.43307808 -0.30788743 0.24764939
0.60195357 0.13312288 -0.31246907 -0.49694207 -0.4518907 -0.38029686 0.4904559 -0.36911827
0.2883966 0.5202598
